trainedModelsPlots/PandaGrasp/Cnn/PPO/old/best_model.npz (npz, 130940 bytes, 2 tensors)

results f8 [1015, 5]
0	0xc020e64a7b4e54f8	-8.449787
1	0xc0222118e325d4a6	-9.064643
2	0xc0158b5f5f0b2852	-5.386106
3	0xc01a9a38b8ae31d7	-6.650607
4	0xc02352da122fad6d	-9.66182
5	0xc01ce8c436fc1590	-7.227311
6	0xc0296df3f961804e	-12.714752
7	0xc0177704ff43419e	-5.86623
8	0xc0275f3eee525892	-11.686027
9	0xc0238480c73abc94	-9.758795
10	0xc0110e8ccdd93c47	-4.264209
11	0xc01f0b6cbd987c63	-7.761157
12	0xc0253718eb895076	-10.607612
13	0xc022ab0d0edc3bd6	-9.334084
14	0xc01735171e29b6b3	-5.801846
15	0xc01bd55ac03ff690	-6.958354
16	0xc028c64a59c065b6	-12.387286
17	0xc023bea57214f052	-9.872356
18	0xc023f441fea8112c	-9.977066
19	0xc012ff5126634118	-4.749333
20	0xc016b1682f944242	-5.673249
21	0xc01d43864cb5bb38	-7.315942
22	0xc01af54eb13dfb0d	-6.739558
23	0xc0233edd69d30271	-9.622783
24	0xc00a96c508b32ce9	-3.323618
25	0xc021c1ab0856e697	-8.878258
26	0xc014653a81dc0db2	-5.098856
27	0xc0243238da3c2118	-10.09809
28	0xc0253ae946801712	-10.615061
29	0xc0213fd32c625e9a	-8.624658
30	0xc01f8ff4ba51a006	-7.890582
31	0xc0210570e6f2e8c0	-8.510627
32	0xc022c40e5a35d67c	-9.382922
33	0xc01adfdc1615ebfb	-6.718613
34	0xc019bce2089e3433	-6.434456
35	0xc01dee0d23d4f15e	-7.482472
36	0xc015ad4562e09fe8	-5.41921
37	0xc012c5a708ede54b	-4.69302
38	0xc021434c7f349386	-8.631443
39	0xc02065275ee99a63	-8.197566
40	0xc02191d30270f388	-8.784813
41	0xc01a56c764adff82	-6.584745
42	0xc023797e996312f5	-9.737294
43	0xc0164234eb9a176e	-5.564655
44	0xc022d31c0010c6f8	-9.412323
45	0xc016e0999dcb5782	-5.719336
46	0xc0264c23fab10ba6	-11.148712
47	0xc028c18e325d4a5e	-12.378038
48	0xbffbe131a8ef77f2	-1.742479
49	0xc001cfe8ab4fa483	-2.226518
50	0xc0160f1e0828c36e	-5.514763
51	0xc024323b7952d235	-10.09811
52	0xc0248500f776c482	-10.259773
53	0xc0175e8ea39c51db	-5.842341
54	0xc0054181e03f7058	-2.656986
55	0xc014370eb24a6a87	-5.053767
56	0xc021a55bccaf709b	-8.822966
57	0xc01a5e4b87bdcf03	-6.592085
58	0xc01ec45f17bd8be7	-7.691769
59	0xc01f09cb252ce033	-7.759564
60	0xc01f634f82f51266	-7.846983
61	0xc01f018611fd5886	-7.751488
62	0xc012f2107b784663	-4.736391
63	0xc01bf79f23465626	-6.991818
64	0xc028efcfa26a22b4	-12.468381
65	0xc02071ba5e353f7d	-8.222125
66	0xc018b8650e779208	-6.180073
67	0xc01a56b59146e4c1	-6.584677
68	0xc014cdd7ecbb7f9d	-5.201019
69	0xc021e36f5caf2d80	-8.944209
70	0xc015c512ec6bce85	-5.442455
71	0xc0207a7fe4bcad9b	-8.239257
72	0xc022ebdff3f0fe04	-9.460693
73	0xc017f2ccb3a2595c	-5.987109
74	0xc020dca38327674d	-8.430935
75	0xc013c809d495182b	-4.94535
76	0xc01072352eb5f5f1	-4.111531
77	0xc0160de19fc2a887	-5.513556
78	0xc01cecd31769a911	-7.231274
79	0xc015949e8815e397	-5.395136
80	0xc01a2efed634549b	-6.545894
81	0xc01e212d3415b142	-7.532399
82	0xc02476514c22ee42	-10.231089
83	0xc01fa01797cc3a00	-7.90634
84	0xc020b83a322af577	-8.359819
85	0xc021d77186551937	-8.920788
86	0xc01dbb91b3f20a74	-7.433173
87	0xc020a1d8a5482385	-8.316106
88	0xc016e4e8fb00bcbe	-5.723545
89	0xc0226e297396d091	-9.21516
90	0xc01bfce032db1e9f	-6.996949
91	0xc020ec8f53c579f2	-8.462031
92	0xc0208b3a0407cc7d	-8.271927
93	0xc016d9e0a41a261c	-5.712771
94	0xc021cb5bb384fd2a	-8.897184
95	0xc01397d566cf41f2	-4.898275
96	0xc02cae132b55ef20	-14.33999
97	0xc02320d66f0cfe15	-9.564136
98	0xc0264831ad2135db	-11.141004
99	0xc0208afd976ff3ae	-8.271466
100	0xc014082cf52b90a8	-5.007984
101	0xc0243461522a6f3f	-10.102305
102	0xc02290f190d173fb	-9.283093
103	0xc0124ed2cbea4ebe	-4.576976
104	0xc016c25785f8d2e5	-5.689787
105	0xc02d664a38327675	-14.699785
106	0xc01190841ede1199	-4.391129
107	0xc0265e8a2ec28b2a	-11.184648
108	0xc00c04e7253da72a	-3.502394
109	0xc0231ea63b688bdb	-9.559862
110	0xc01b9bd61f5be5da	-6.902184
111	0xc0191eabbcb1cc96	-6.279952
112	0xc010d327674d1633	-4.206205
113	0xc029b9042d8c2a45	-12.86136
114	0xc01de497b7414a4d	-7.473235
115	0xc020b1dffc5479d5	-8.347412
116	0xc02171a0cf1800a8	-8.72193
117	0xc0201f4be835dedf	-8.061126
118	0xc02384fc3f811f4f	-9.759737
119	0xc017715831f03d14	-5.860688
120	0xc01d4a4acf312b1b	-7.322551
121	0xc01d7c96030c23fb	-7.371666
122	0xc02027eaa2a0a958	-8.077962
123	0xc01faadd15f02c4d	-7.916859
124	0xc02218b2c83ec893	-9.048239
125	0xc020090e8858ff76	-8.017689
126	0xc025015c63ae2542	-10.502658
127	0xc011bdb9841aac54	-4.435278
128	0xc016b245b291b824	-5.674094
129	0xc01e080ecfa69be1	-7.507869
130	0xc00b7ddb1209edc0	-3.436453
131	0xc021bbca31e7d999	-8.866777
132	0xc010548adeebb342	-4.082561
133	0xc022e720ea5b530d	-9.451423
134	0xc021da4766c6de76	-8.926326
135	0xc02238abb44e50c6	-9.110685
136	0xc02193827fa1a0cf	-8.788105
137	0xc02922ac96cc5fc0	-12.567723
138	0xc026ea40746455eb	-11.457523
139	0xc0220cb85a4f00ef	-9.024844
140	0xc016f8887229e908	-5.742708
141	0xc0295f7f27fe4bcb	-12.686517
142	0xc026766cb10342ab	-11.231298
143	0xc020a1131ec0b567	-8.314599
144	0xc025e16a26e54717	-10.940263
145	0xc01bacc2938de6de	-6.918711
146	0xc007212cf0f9d2bf	-2.891199
147	0xc0226c94b380cb6c	-9.212072
148	0xc0155873365881a1	-5.336377
149	0xc01e727a63736cdf	-7.611795
150	0xc0235c382a12f901	-9.680116
151	0xc02300b135979182	-9.501352
152	0xc011447f13059642	-4.316891
153	0xc024df357e670e2c	-10.435955
154	0xc016808461f9f01c	-5.625505
155	0xc02585097c80841f	-10.759838
156	0xc01149496249a134	-4.321569
157	0xc0175868fd199bb2	-5.836338
158	0xc01901e7967caea7	-6.25186
159	0xc01beccccccccccd	-6.98125
160	0xc0123f7b9e060fe4	-4.561995
161	0xc02bebd25247cb71	-13.960589
162	0xc0263af901083dbc	-11.115181
163	0xc022c4c22ee4191a	-9.384294
164	0xc01f60f4d7add15f	-7.844684
165	0xc00f5f2778140dd4	-3.921462
166	0xc0211543d03968d7	-8.541533
167	0xc016289b951c5c57	-5.539656
168	0xc02587e154434e33	-10.765391
169	0xc02451cf355cd91f	-10.159784
170	0xc0202e51b0ccbc06	-8.090467
171	0xc01af320535c9e67	-6.737428
172	0xc028c109070fbeba	-12.377022
173	0xc01a14e874c8ffb9	-6.520418
174	0xc0295d8665e02ea9	-12.682666
175	0xc01f1e568a50507a	-7.779627
176	0xc01273f811f4f50a	-4.613251
177	0xc017bd7fd82773e2	-5.935058
178	0xc010f24c8366516e	-4.23662
179	0xc01ef31055b89939	-7.737367
180	0xc0221a469d7342ee	-9.05132
181	0xc01e0d8cb07d0aee	-7.513232
182	0xc01ff9c7ffde7211	-7.993927
183	0xc022f084a515ce9e	-9.469762
184	0xc00c21ffb480a5ad	-3.516601
185	0xc026dca8c154c986	-11.430975
186	0xc017efb506dd69d3	-5.984089
187	0xc02223d5dc400757	-9.069991
188	0xc026b15ebfa8f7db	-11.346426
189	0xc019051b93037d63	-6.254988
190	0xc01c224c8366516e	-7.033495
191	0xc016d504c48adeec	-5.708026
192	0xc020ad2b6f19934f	-8.338222
193	0xc021000eae18ac9f	-8.500112
194	0xc01d90c73abc9470	-7.391385
195	0xc02622bf9830e3ce	-11.067868
196	0xc016fffbce4217d3	-5.749984
197	0xc0290e55e28aa433	-12.527999
198	0xc015fbacb4289119	-5.495776
199	0xc026e72756861e93	-11.451472
200	0xc01a1528ae74f2f1	-6.520663
201	0xc021f6e99a62ed35	-8.982251
202	0xc024f5a87a072d1b	-10.479801
203	0xc00fe6cca2db61bb	-3.987695
204	0xc01ec117b5286b59	-7.688567
205	0xc01960739b024f66	-6.344191
206	0xc01cec08fa7a8501	-7.230503
207	0xc021c03f0bae89ec	-8.875481
208	0xc013638b04ab606b	-4.84721
209	0xc02540a569b17482	-10.626262
210	0xc01aa3b3e9a6f827	-6.659866
211	0xc021ecbba12b5e53	-8.962369
212	0xc02697564302b40f	-11.29558
213	0xc026bf290abb44e5	-11.37336
214	0xc0270f6cce5f7404	-11.530127
215	0xc0296f54d1e96c40	-12.717444
216	0xc028bb08bb906467	-12.365301
217	0xc020a70739b024f6	-8.326227
218	0xc022f549b62c7757	-9.479078
219	0xc0183bb40b34e768	-6.058304
220	0xc025335c7cd898b3	-10.600315
221	0xc0230e7ba237cdcd	-9.528287
222	0xc0294f58c08b75ea	-12.654974
223	0xc01451a2a4db163c	-5.079722
224	0xc022732f23033a47	-9.224969
225	0xc024d8af81626b2f	-10.423214
226	0xc014b2917507e9d9	-5.174383
227	0xc0201410d7be9857	-8.039191
228	0xc0238d8255b035bd	-9.776385
229	0xc01f474b40703298	-7.819623
230	0xc01403886594af4f	-5.00345
231	0xc01acdbf0563ed0f	-6.700924
232	0xc0248eddf00abf77	-10.279037
233	0xc0217346dc5d6388	-8.72515
234	0xc014646bf01322f2	-5.098068
235	0xc01c45b035bd512f	-7.068055
236	0xc027797d49d7ba67	-11.737284
237	0xc020c50ce4ead0c4	-8.384864
238	0xc02273780346dc5d	-9.225525
239	0xc015d62131a8ef78	-5.459111
240	0xc023c6f9335d249e	-9.88862
241	0xc014049a133c1ce7	-5.004494
242	0xc01f878c0053e2d6	-7.88237
243	0xc022ebbf2f555821	-9.460443
244	0xc01b34738a3b57c5	-6.801222
245	0xc0203aa4766c6de7	-8.114536
246	0xc01bcab1d4f9c1f8	-6.947944
247	0xc0248f1e0828c36e	-10.279526
248	0xc01f275d13d74d59	-7.788441
249	0xc027ef93bc0a06ea	-11.967924
250	0xc0157f6f8f041462	-5.374449
251	0xc020c4cb1897a67a	-8.384362
252	0xc020527913e81451	-8.16108
253	0xc022466772d5e072	-9.137508
254	0xc023e12231832fcb	-9.939714
255	0xc02235a0be510907	-9.104742

successes f8 [1015, 5]
0	0x0000000000000000	0.0
1	0x0000000000000000	0.0
2	0x0000000000000000	0.0
3	0x0000000000000000	0.0
4	0x0000000000000000	0.0
5	0x0000000000000000	0.0
6	0x0000000000000000	0.0
7	0x0000000000000000	0.0
8	0x0000000000000000	0.0
9	0x0000000000000000	0.0
10	0x0000000000000000	0.0
11	0x0000000000000000	0.0
12	0x0000000000000000	0.0
13	0x0000000000000000	0.0
14	0x0000000000000000	0.0
15	0x0000000000000000	0.0
16	0x0000000000000000	0.0
17	0x0000000000000000	0.0
18	0x0000000000000000	0.0
19	0x0000000000000000	0.0
20	0x0000000000000000	0.0
21	0x0000000000000000	0.0
22	0x0000000000000000	0.0
23	0x0000000000000000	0.0
24	0x0000000000000000	0.0
25	0x0000000000000000	0.0
26	0x0000000000000000	0.0
27	0x0000000000000000	0.0
28	0x0000000000000000	0.0
29	0x0000000000000000	0.0
30	0x0000000000000000	0.0
31	0x0000000000000000	0.0
32	0x0000000000000000	0.0
33	0x0000000000000000	0.0
34	0x0000000000000000	0.0
35	0x0000000000000000	0.0
36	0x0000000000000000	0.0
37	0x0000000000000000	0.0
38	0x0000000000000000	0.0
39	0x0000000000000000	0.0
40	0x0000000000000000	0.0
41	0x0000000000000000	0.0
42	0x0000000000000000	0.0
43	0x0000000000000000	0.0
44	0x0000000000000000	0.0
45	0x0000000000000000	0.0
46	0x0000000000000000	0.0
47	0x0000000000000000	0.0
48	0x3ff0000000000000	1.0
49	0x3ff0000000000000	1.0
50	0x0000000000000000	0.0
51	0x0000000000000000	0.0
52	0x0000000000000000	0.0
53	0x0000000000000000	0.0
54	0x0000000000000000	0.0
55	0x0000000000000000	0.0
56	0x0000000000000000	0.0
57	0x0000000000000000	0.0
58	0x0000000000000000	0.0
59	0x0000000000000000	0.0
60	0x0000000000000000	0.0
61	0x0000000000000000	0.0
62	0x0000000000000000	0.0
63	0x0000000000000000	0.0
64	0x0000000000000000	0.0
65	0x0000000000000000	0.0
66	0x0000000000000000	0.0
67	0x0000000000000000	0.0
68	0x0000000000000000	0.0
69	0x0000000000000000	0.0
70	0x0000000000000000	0.0
71	0x0000000000000000	0.0
72	0x0000000000000000	0.0
73	0x0000000000000000	0.0
74	0x0000000000000000	0.0
75	0x0000000000000000	0.0
76	0x0000000000000000	0.0
77	0x0000000000000000	0.0
78	0x0000000000000000	0.0
79	0x0000000000000000	0.0
80	0x0000000000000000	0.0
81	0x0000000000000000	0.0
82	0x0000000000000000	0.0
83	0x0000000000000000	0.0
84	0x0000000000000000	0.0
85	0x0000000000000000	0.0
86	0x0000000000000000	0.0
87	0x0000000000000000	0.0
88	0x0000000000000000	0.0
89	0x0000000000000000	0.0
90	0x0000000000000000	0.0
91	0x0000000000000000	0.0
92	0x0000000000000000	0.0
93	0x0000000000000000	0.0
94	0x0000000000000000	0.0
95	0x0000000000000000	0.0
96	0x0000000000000000	0.0
97	0x0000000000000000	0.0
98	0x0000000000000000	0.0
99	0x0000000000000000	0.0
100	0x0000000000000000	0.0
101	0x0000000000000000	0.0
102	0x0000000000000000	0.0
103	0x0000000000000000	0.0
104	0x0000000000000000	0.0
105	0x0000000000000000	0.0
106	0x0000000000000000	0.0
107	0x0000000000000000	0.0
108	0x0000000000000000	0.0
109	0x0000000000000000	0.0
110	0x0000000000000000	0.0
111	0x0000000000000000	0.0
112	0x0000000000000000	0.0
113	0x0000000000000000	0.0
114	0x0000000000000000	0.0
115	0x0000000000000000	0.0
116	0x0000000000000000	0.0
117	0x0000000000000000	0.0
118	0x0000000000000000	0.0
119	0x0000000000000000	0.0
120	0x0000000000000000	0.0
121	0x0000000000000000	0.0
122	0x0000000000000000	0.0
123	0x0000000000000000	0.0
124	0x0000000000000000	0.0
125	0x0000000000000000	0.0
126	0x0000000000000000	0.0
127	0x0000000000000000	0.0
128	0x0000000000000000	0.0
129	0x0000000000000000	0.0
130	0x3ff0000000000000	1.0
131	0x0000000000000000	0.0
132	0x0000000000000000	0.0
133	0x0000000000000000	0.0
134	0x0000000000000000	0.0
135	0x0000000000000000	0.0
136	0x0000000000000000	0.0
137	0x0000000000000000	0.0
138	0x0000000000000000	0.0
139	0x0000000000000000	0.0
140	0x0000000000000000	0.0
141	0x0000000000000000	0.0
142	0x0000000000000000	0.0
143	0x0000000000000000	0.0
144	0x0000000000000000	0.0
145	0x0000000000000000	0.0
146	0x3ff0000000000000	1.0
147	0x0000000000000000	0.0
148	0x0000000000000000	0.0
149	0x0000000000000000	0.0
150	0x0000000000000000	0.0
151	0x0000000000000000	0.0
152	0x0000000000000000	0.0
153	0x0000000000000000	0.0
154	0x0000000000000000	0.0
155	0x0000000000000000	0.0
156	0x0000000000000000	0.0
157	0x0000000000000000	0.0
158	0x0000000000000000	0.0
159	0x0000000000000000	0.0
160	0x0000000000000000	0.0
161	0x0000000000000000	0.0
162	0x0000000000000000	0.0
163	0x0000000000000000	0.0
164	0x0000000000000000	0.0
165	0x0000000000000000	0.0
166	0x0000000000000000	0.0
167	0x0000000000000000	0.0
168	0x0000000000000000	0.0
169	0x0000000000000000	0.0
170	0x0000000000000000	0.0
171	0x0000000000000000	0.0
172	0x0000000000000000	0.0
173	0x0000000000000000	0.0
174	0x0000000000000000	0.0
175	0x0000000000000000	0.0
176	0x0000000000000000	0.0
177	0x0000000000000000	0.0
178	0x0000000000000000	0.0
179	0x0000000000000000	0.0
180	0x0000000000000000	0.0
181	0x0000000000000000	0.0
182	0x0000000000000000	0.0
183	0x0000000000000000	0.0
184	0x0000000000000000	0.0
185	0x0000000000000000	0.0
186	0x0000000000000000	0.0
187	0x0000000000000000	0.0
188	0x0000000000000000	0.0
189	0x0000000000000000	0.0
190	0x0000000000000000	0.0
191	0x0000000000000000	0.0
192	0x0000000000000000	0.0
193	0x0000000000000000	0.0
194	0x0000000000000000	0.0
195	0x0000000000000000	0.0
196	0x0000000000000000	0.0
197	0x0000000000000000	0.0
198	0x0000000000000000	0.0
199	0x0000000000000000	0.0
200	0x0000000000000000	0.0
201	0x0000000000000000	0.0
202	0x0000000000000000	0.0
203	0x0000000000000000	0.0
204	0x0000000000000000	0.0
205	0x0000000000000000	0.0
206	0x0000000000000000	0.0
207	0x0000000000000000	0.0
208	0x0000000000000000	0.0
209	0x0000000000000000	0.0
210	0x0000000000000000	0.0
211	0x0000000000000000	0.0
212	0x0000000000000000	0.0
213	0x0000000000000000	0.0
214	0x0000000000000000	0.0
215	0x0000000000000000	0.0
216	0x0000000000000000	0.0
217	0x0000000000000000	0.0
218	0x0000000000000000	0.0
219	0x0000000000000000	0.0
220	0x0000000000000000	0.0
221	0x0000000000000000	0.0
222	0x0000000000000000	0.0
223	0x0000000000000000	0.0
224	0x0000000000000000	0.0
225	0x0000000000000000	0.0
226	0x0000000000000000	0.0
227	0x0000000000000000	0.0
228	0x0000000000000000	0.0
229	0x0000000000000000	0.0
230	0x0000000000000000	0.0
231	0x0000000000000000	0.0
232	0x0000000000000000	0.0
233	0x0000000000000000	0.0
234	0x0000000000000000	0.0
235	0x0000000000000000	0.0
236	0x0000000000000000	0.0
237	0x0000000000000000	0.0
238	0x0000000000000000	0.0
239	0x0000000000000000	0.0
240	0x0000000000000000	0.0
241	0x0000000000000000	0.0
242	0x0000000000000000	0.0
243	0x0000000000000000	0.0
244	0x0000000000000000	0.0
245	0x0000000000000000	0.0
246	0x0000000000000000	0.0
247	0x0000000000000000	0.0
248	0x0000000000000000	0.0
249	0x0000000000000000	0.0
250	0x0000000000000000	0.0
251	0x0000000000000000	0.0
252	0x0000000000000000	0.0
253	0x0000000000000000	0.0
254	0x0000000000000000	0.0
255	0x0000000000000000	0.0
